data.pth (torch, 5015 bytes, 6 tensors)

l1.weight f4 [8, 53]
00000000: f935 e23e e5b7 d53e 0bcd 5ebd 5309 7e3e
00000010: d523 91be 1862 d1be 6cd7 b5bd 42d6 c1bc
00000020: a996 bf3c a527 d23e a452 633e e6ca 9c3e
00000030: 4271 d1be 9488 58be a097 12be 6933 8a3e
00000040: 189a f43e da86 d1bd 7060 d1be 48bb 45be
00000050: 0c44 b8bd 31b2 e53e 736e 82bd 994d 133e
00000060: a411 7a3e 4c92 6c3e 96a4 95bd 4a42 63bc
00000070: 2b65 17be f456 a43b 6ba0 8cbe bd3a c93e
00000080: f904 7b3e d391 ea3d 28ed f63e 4e92 873c
00000090: 572f 2cbe 23a3 51be 5f83 b6bd 9f18 96be
000000a0: 66a9 aabb 8aac 473e 5266 4e3e f340 c53e
000000b0: bb5d 9e3e cafd 3c3f 472e ce3e 8ae1 843e
000000c0: 712e 75be aeb5 6e3e 332d 14be 7f88 48be
000000d0: eecf 223e 039f 74be a81e 853e b840 0c3f
000000e0: ecdc fdbe 2e25 863d e1ca 1c3e aceb cb3e
000000f0: 11c2 0f3f 5070 94be 73c4 b2bd 8ca7 023f
00000100: 81da 86bd 1b95 543f e227 fa3e 9a64 023f
00000110: 90d6 393e 5389 0cbd fe1c 8dbe 67f5 4b3e
00000120: 613d 023f 603e 24bf cac2 ebbd 9b44 34bf
00000130: 6bb8 14bf db35 f8be 7b95 c23e 1bf2 ea3e
00000140: 84cb 15be b79c b73e 8b7a cfbd 656b 103d
00000150: 54e7 223d 81df 7f3d 97ca c53e 836b 0f3e
00000160: 618e ce3e 4613 0d3f b485 d63e 012e ec3e
00000170: 4e22 f83d 9feb d73e ad37 90bd ea75 a5bc
00000180: e349 0cbe 845d ad3e 3138 1fbf f80e adbd
00000190: a583 94be 4e88 303f d99d 1b3e 1b2a f13e
000001a0: 7529 7c3e 73d4 943e 0944 b6be f8cd 4c3e
000001b0: 7dfc a73e 82e9 eb3e a6a4 0c3f 60ca 523e
000001c0: d585 503e 785e 733e 28cd ac3e 2105 fb3e
000001d0: 53e3 823e bee7 083f 4f72 13bf 2290 cd3e
000001e0: 9772 a53e ae69 ebbd 45e3 f73e a496 9c3e
000001f0: 6b07 393e 2124 4bbe a9c0 273f 8449 5fbe
00000200: 3dd0 ed3e 222b 2d3f 2ddf 1f3f 3aab b53e
00000210: 1083 e23e 24c7 46bd 38cd b1bd 1847 3abe
00000220: ba4a 3e3e 56b1 b73e cfdb d7bd c954 2a3e
00000230: 5b1b ab3e 2269 e0bd 5001 db3d 5ae4 673e
00000240: 2b35 a53e 9e72 e23d 444d 41be c767 dc3e
00000250: 1553 333d e0a9 f83e d574 ea3d 9633 37bf
00000260: 2c0e 11be 31e6 793e fbc0 113e 939c 013f
00000270: 17f3 eebd ab6c 2b3e 419f 5f3d 10e6 c53e
00000280: 5254 1b3e 31ce d1be 117f d03e f723 07be
00000290: de27 24bf cb31 27be b994 9ebe faf8 e53e
000002a0: 7079 08be 3f92 3dbe d380 acbe 0223 24bf
000002b0: bfe5 1ebe fb30 9cbd 6312 3ebe 6af2 dfbd
000002c0: e100 ce3e b0f7 16bf 6c30 66be b867 2a3f
000002d0: ad21 bf3e 9c74 233f 906e 1e3f 394a 1b3e
000002e0: a220 5ebd 07d2 4e3d 9c36 b6be 4015 5fbc
000002f0: 95e4 02bf 42e8 00bf 7ff8 44be 1fa8 843e
00000300: 70b6 43be 7e0b adbd 4408 2cbe 4cde c6be
00000310: 63a1 3cbe fa7e 46bd ff61 debe 79ba 70be
00000320: 048a 08be 43dd 49bd 0061 05be d718 4ebe
00000330: b3a9 3e3f 458f c63e 5fc9 993e f344 90be
00000340: 93d8 1c3d aef4 123a 29e6 43be 14ed 973e
00000350: 1128 213e 5f50 aebd 4dab b3be f4cb c73e
00000360: c21f 993e d221 e5be 9109 9bbd 8293 ddbe
00000370: 0d6a d63e 0121 c53d fd7f 57bb ab76 8e3e
00000380: 98ff 263f db26 3c3d 1b57 12be ee7d 50be
00000390: 1d6e 0b3e d32d af3e a121 e5be 8345 993e
000003a0: 66af 163f 6da0 9b3d 57cf e73e c281 e93e
000003b0: 9962 393f 9947 053d 6bca 8e3d 9d8b 05be
000003c0: 00b0 e33e 5952 a5be 4040 a7be 7652 b93e
000003d0: e670 36bc a3fa 2bbe d3e1 203e 6c07 973e
000003e0: 4f44 b6be 5723 febd e755 cdbd a63a 5cbe
000003f0: 9a6f 6e3e 2467 fb3d d582 80bb 6528 b53e
0.44181803 0.41741863 -0.054394763 0.24808244 -0.2834765 -0.40895152 -0.08878979 -0.023661736
0.02338727 0.4104587 0.22199494 0.3062355 -0.4090672 -0.2114585 -0.14315653 0.26992348
0.47773814 -0.10230799 -0.40893888 -0.19309723 -0.08997354 0.44862512 -0.06368723 0.1438507
0.24420792 0.23102683 -0.07306783 -0.013870785 -0.14784686 0.0050152484 -0.2746614 0.39302626
0.24513616 0.11453595 0.4822781 0.016549256 -0.16814934 -0.20472388 -0.08911776 -0.2931566
-0.005208182 0.19499412 0.2015622 0.38526115 0.30930886 0.7382475 0.40269682 0.25953323
-0.23943497 0.23311493 -0.14470367 -0.19583319 0.15899631 -0.23888783 0.2599995 0.5478625
-0.49582613 0.0655006 0.15311767 0.3982824 0.56155497 -0.28991938 -0.08728876 0.51036906
-0.06584645 0.83040017 0.48858553 0.50934756 0.18148255 -0.03431065 -0.27561182 0.19917832
0.50874907 -0.64157677 -0.115117624 -0.70417184 -0.580939 -0.48478588 0.3800467 0.45887837
-0.14628416 0.3586175 -0.10130795 0.03525867 0.039771393 0.06246901 0.38631126 0.14005856
0.40343 0.55107534 0.41898882 0.46128848 0.12115918 0.42171952 -0.07041869 -0.020197827
-0.1370006 0.3386041 -0.62195116 -0.08450121 -0.29006687 0.68957984 0.15196933 0.47102436
0.2462519 0.29068336 -0.35598782 0.20000446 0.3280982 0.4607659 0.54938734 0.20585012
0.20363553 0.23766506 0.33750272 0.4902735 0.2556406 0.5347861 -0.57596296 0.40149027
0.32313988 -0.11494766 0.4841558 0.3058368 0.18069236 -0.19838001 0.6552835 -0.21805388
0.46447936 0.6764394 0.62449914 0.35482198 0.44240618 -0.04852976 -0.086817205 -0.18191183
0.18583193 0.35877484 -0.10539972 0.16633905 0.33419308 -0.109575525 0.1069361 0.22645703
0.32267126 0.11057018 -0.18877131 0.43047926 0.043780405 0.48567104 0.11448065 -0.7156309
-0.14165562 0.24404217 0.14233772 0.5062954 -0.116674595 0.16740672 0.054595236 0.38652086
0.15168884 -0.40977624 0.40721944 -0.13197313 -0.6412333 -0.16327588 -0.3097284 0.44916517
-0.13327575 -0.1851282 -0.33692035 -0.6411592 -0.15517329 -0.0762653 -0.18561701 -0.10934909
0.40235046 -0.5897169 -0.22479409 0.6656451 0.3733038 0.63849807 0.61887455 0.15165032
-0.05423034 0.050493266 -0.3558854 -0.013615906 -0.5113004 -0.503544 -0.19235419 0.25909516
-0.19112563 -0.084494576 -0.16800028 -0.38841474 -0.18420939 -0.048460938 -0.4343414 -0.23508634
-0.13333899 -0.049283277 -0.13025284 -0.20126663 0.7447769 0.3878118 0.30036446 -0.28177604
0.03829248 0.0005605918 -0.19130768 0.29673064 0.1573794 -0.08511423 -0.3509163 0.3902279
0.29907042 -0.44752365 -0.07570184 -0.43276602 0.41877785 0.096254356 -0.0032882683 0.2782491
0.65233755 0.045935493 -0.1429104 -0.20360538 0.13616224 0.3421465 -0.4475222 0.29935846
0.58861387 0.07598958 0.45275375 0.4560681 0.72416073 0.032538984 0.06972202 -0.1304154
0.44470215 -0.3228939 -0.32666206 0.36195725 -0.0111353155 -0.16794829 0.15711145 0.2949785
-0.3559899 -0.12409084 -0.1002615 -0.21506748 0.2328476 0.12275532 -0.0039218464 0.3538238

l1.bias f4 [8]
00000000: 9463 d13e 3d4e 343f 3428 373f ac28 243f
00000010: 3022 e53e 21ef 3a3f 5910 043f 5a52 d63e
0.40896285 0.7043188 0.7154572 0.6412456 0.44752645 0.7302113 0.51587445 0.41859704

l2.weight f4 [8, 8]
00000000: 7213 2dbf 7e17 873f 5b68 d63e caaa 58bf
00000010: f04d fdbe 2eb5 5a3f 1d6a 19bf 0e16 013f
00000020: e149 693f 4212 6f3f edf0 81bf 5a4b 163f
00000030: a75b 933e 3c14 4fbf 3356 a13f 1646 c53d
00000040: ce1a 163f 7811 033f 14e4 783f 2c99 8eba
00000050: 35d1 7fbe fa2d 33bf 24bc 10bf b351 ff3d
00000060: 842c 8c3f 5a1c 17bf c619 9f3f d427 7f3f
00000070: 88db bdbc 46b3 8a3f d5fa 8b3f f0cf bdbe
00000080: 2e0e 3dbf 1d34 9e3e ab59 953f a8c4 893f
00000090: 28cb 0d3f 942a b03f f40a 02bf b034 66bf
000000a0: 0914 a3bd 36a9 8e3f 40bc 2d3f bba8 8bbf
000000b0: 87ca 0d3f 6c6b 82bf 9b52 db3e d458 0b3f
000000c0: b159 6d3f e469 39be 0c13 15be 980a 2e3f
000000d0: ede0 9a3e 2746 6bbf f831 25be 8e1c a83f
000000e0: 9065 613f 8d74 26be 171d 2f3e 0c17 953f
000000f0: 9680 c63f 7e22 f63d 1e64 423f 2a07 683f
-0.67607796 1.0554044 0.41876492 -0.84635603 -0.49473524 0.8543271 -0.5992754 0.5042428
0.91128355 0.93387234 -1.015165 0.5870873 0.28780863 -0.8089025 1.2604431 0.096325085
0.5863465 0.5119853 0.9722302 -0.0010879389 -0.2498215 -0.6999203 -0.5653708 0.12466755
1.0951085 -0.59027636 1.242974 0.9967015 -0.02317597 1.083596 1.0935923 -0.37072706
-0.7384976 0.30899134 1.166799 1.076314 0.55388117 1.3762994 -0.50797963 -0.89924145
-0.07962806 1.1145389 0.6786537 -1.0910867 0.5538716 -1.0189033 0.4283646 0.54432416
0.92714983 -0.181068 -0.14558047 0.67984915 0.3024973 -0.9190392 -0.16132343 1.3133714
0.880456 -0.16255398 0.1710094 1.1647658 1.5507991 0.120182976 0.75934017 0.9063593

l2.bias f4 [8]
00000000: 8c26 453f 7f5d 2e3f 5f94 53be 41d0 c33d
00000010: 7b1b 533f c93a 6e3d 4b79 823d 9355 60be
0.7701194 0.68111414 -0.20662068 0.09561206 0.82463807 0.05816153 0.06370791 -0.21907644

l3.weight f4 [7, 8]
00000000: bd08 103f d02e 75be a282 a13f 21cd a4bf
00000010: c1c5 be3d 22db 2d3f c587 4dbf 154f b4bf
00000020: 580e 7bbf dcab 2dbf b8b5 313f f4ae 5a3d
00000030: 6549 4fbf fd79 e93e 6fd2 033f dc64 f53c
00000040: de87 973e 2e29 923e 846d adbf 7fb8 90bf
00000050: fc52 12bf a292 523f 3448 bdbd 99e3 0d3e
00000060: d3f7 4abf 2861 de3e b38e 88bf fc28 f53e
00000070: 9caa 87bf 6dec f23d 4552 bdbf 6bce d93b
00000080: 3fcf 853f 7beb 7ebf 0923 afbf c696 353d
00000090: 28df f63e 27f9 79bf 223c 34be c2b4 4dbf
000000a0: 99d2 84bf a4c8 f5be bdc8 01bf f933 fb3e
000000b0: 58da f43e a93b 22bf ba05 55bf 9d57 cf3e
000000c0: b33b f7be 9173 d93e 358a 83bf bfe3 203d
000000d0: ffdc 2ebf 1962 c3bf 70fc 583f 11a5 a23e
0.56263334 -0.23943639 1.2617991 -1.28751 0.09315062 0.67912495 -0.8028529 -1.4086634
-0.9806876 -0.6784036 0.69417906 0.053389505 -0.80971366 0.45600882 0.5149297 0.02995532
0.29595846 0.28547043 -1.3549047 -1.1306304 -0.57157874 0.82254994 -0.09242287 0.13856353
-0.792844 0.434335 -1.0668548 0.4788283 -1.0598941 0.11861501 -1.4790732 0.0066469214
1.0453871 -0.99578065 -1.3682567 0.044333242 0.4821713 -0.976458 -0.17601064 -0.8035394
-1.0376769 -0.4800464 -0.5069693 0.4906309 0.47822833 -0.63372284 -0.83211863 0.4049653
-0.48287734 0.42470983 -1.0276552 0.039279696 -0.68305963 -1.5264312 0.8476019 0.3176656

l3.bias f4 [7]
00000000: a35e 7abe e255 e8be 7619 663d 25c3 873e
00000010: 9cfe db3e 6c11 4fbe e2d9 9abe
-0.24450164 -0.45378023 0.056176625 0.2651607 0.4296769 -0.2022149 -0.30244356
